…
        "id": "yZfVcpxLwioY",
        "colab_type": "code",
        "colab": {
          "base_uri": "https://localhost:8080/",
          "height": 323
        },
        "outputId": "1498d321-3391-44ab-b02e-58ecd474da64"
      },
      "source": [
        "# Create the generator\n",
        "netG = Generator(ngpu).to(device)\n",
        "\n",
        "# Print the model\n",
        "print(netG)"
      ],
      "execution_count": 24,
      "outputs": [
        {
          "output_type": "stream",
          "text": [
            "Generator(\n",
            "  (main): Sequential(\n",
            "    (0): ConvTranspose2d(100, 512, kernel_size=(4, 4), stride=(1, 1), bias=False)\n",
            "    (1): BatchNorm2d(512, eps=1e-05, momentum=0.1, affine=True, track_running_stats=True)\n",
            "    (2): ReLU(inplace=True)\n",
            "    (3): ConvTranspose2d(512, 256, kernel_size=(4, 4), stride=(2, 2), padding=(1, 1), bias=False)\n",
            "    (4): BatchNorm2d(256, eps=1e-05, momentum=0.1, affine=True, track_running_stats=True)\n",
            "    (5): ReLU(inplace=True)\n",
            "    (6): ConvTranspose2d(256, 128, kernel_size=(4, 4), stride=(2, 2), padding=(1, 1), bias=False)\n",
            "    (7): BatchNorm2d(128, eps=1e-05, momentum=0.1, affine=True, track_running_stats=True)\n",
            "    (8): ReLU(inplace=True)\n",
            "    (9): ConvTranspose2d(128, 64, kernel_size=(4, 4), stride=(2, 2), padding=(1, 1), bias=False)\n",
            "    (10): BatchNorm2d(64, eps=1e-05, momentum=0.1, affine=True, track_running_stats=True)\n",
            "    (11): ReLU(inplace=True)\n",
            "    (12): ConvTranspose2d(64, 1, kernel_size=(1, 1), stride=(1, 1), bias=False)\n",
            "    (13): Tanh()\n",
            "  )\n",
            ")\n"
          ],
          "name": "stdout"
        }
      ]
    },
    {
      "cell_type": "code",
      "metadata": {
        "id": "4BYVZHclwijk",
        "colab_type": "code",
        "colab": {
          "base_uri": "https://localhost:8080/",
          "height": 34
        },
…
        "id": "P7LyINOiwzUR",
        "colab_type": "code",
        "colab": {
          "base_uri": "https://localhost:8080/",
          "height": 306
        },
        "outputId": "03ace475-1878-4fbb-bd10-eb4533d5095d"
      },
      "source": [
        "# Create the Discriminator\n",
        "netD = Discriminator(ngpu).to(device)\n",
        "\n",
        "# Print the model\n",
        "print(netD)"
      ],
      "execution_count": 27,
      "outputs": [
        {
          "output_type": "stream",
          "text": [
            "Discriminator(\n",
            "  (main): Sequential(\n",
            "    (0): Conv2d(1, 64, kernel_size=(4, 4), stride=(2, 2), padding=(1, 1), bias=False)\n",
            "    (1): LeakyReLU(negative_slope=0.2, inplace=True)\n",
            "    (2): Conv2d(64, 128, kernel_size=(4, 4), stride=(2, 2), padding=(1, 1), bias=False)\n",
            "    (3): BatchNorm2d(128, eps=1e-05, momentum=0.1, affine=True, track_running_stats=True)\n",
            "    (4): LeakyReLU(negative_slope=0.2, inplace=True)\n",
            "    (5): Conv2d(128, 256, kernel_size=(4, 4), stride=(2, 2), padding=(1, 1), bias=False)\n",
            "    (6): BatchNorm2d(256, eps=1e-05, momentum=0.1, affine=True, track_running_stats=True)\n",
            "    (7): LeakyReLU(negative_slope=0.2, inplace=True)\n",
            "    (8): Conv2d(256, 512, kernel_size=(4, 4), stride=(2, 2), padding=(1, 1), bias=False)\n",
            "    (9): BatchNorm2d(512, eps=1e-05, momentum=0.1, affine=True, track_running_stats=True)\n",
            "    (10): LeakyReLU(negative_slope=0.2, inplace=True)\n",
            "    (11): Conv2d(512, 1, kernel_size=(2, 2), stride=(2, 2), bias=False)\n",
            "    (12): Sigmoid()\n",
            "  )\n",
            ")\n"
          ],
          "name": "stdout"
        }
      ]
    },
    {
      "cell_type": "code",
      "metadata": {
        "id": "10XTO66qwzZQ",
        "colab_type": "code",
        "colab": {
          "base_uri": "https://localhost:8080/",
          "height": 34
…
